…
[0;33muse_tension_embed[0m: False, [0;33muse_voicing_embed[0m: False, [0;33mval_check_interval[0m: 100, [0;33mval_with_vocoder[0m: True, [0;33mvocoder[0m: NsfHifiGAN, 
[0;33mvocoder_ckpt[0m: checkpoints/dependency_checkpoints/nsf-hifigan/model.ckpt, [0;33mvoicing_smooth_width[0m: 0.12, [0;33mwin_size[0m: 2048, [0;33mwork_dir[0m: checkpoints/debug_test, 
| model Arch:  DiffSingerAcoustic(
  (fs2): FastSpeech2Acoustic(
    (txt_embed): NormalInitEmbedding(38, 256, padding_idx=0)
    (dur_embed): XavierUniformInitLinear(in_features=1, out_features=256, bias=True)
    (encoder): FastSpeech2Encoder(
      (layers): ModuleList(
        (0-3): 4 x TransformerEncoderLayer(
          (op): EncSALayer(
            (layer_norm1): LayerNorm((256,), eps=1e-05, elementwise_affine=True)
            (self_attn): MultiheadSelfAttentionWithRoPE(
              (in_proj): Linear(in_features=256, out_features=768, bias=False)
              (out_proj): Linear(in_features=256, out_features=256, bias=False)
              (dropout): Dropout(p=0.0, inplace=False)
              (rotary_embed): RotaryEmbedding()
            )
            (layer_norm2): LayerNorm((256,), eps=1e-05, elementwise_affine=True)
            (ffn): TransformerFFNLayer(
              (act_fn): GELU(approximate='none')
              (ffn_1): Conv1d(256, 1024, kernel_size=(3,), stride=(1,), padding=(1,))
              (ffn_2): XavierUniformInitLinear(in_features=1024, out_features=256, bias=True)
            )
          )
        )
      )
      (layer_norm): LayerNorm((256,), eps=1e-05, elementwise_affine=True)
    )
    (pitch_embed): XavierUniformInitLinear(in_features=1, out_features=256, bias=True)
    (key_shift_embed): XavierUniformInitLinear(in_features=1, out_features=256, bias=True)
    (speed_embed): XavierUniformInitLinear(in_features=1, out_features=256, bias=True)
  )
  (aux_decoder): AuxDecoderAdaptor(
    (decoder): ConvNeXtDecoder(
      (inconv): Conv1d(256, 512, kernel_size=(7,), stride=(1,), padding=(3,))
      (conv): ModuleList(
        (0-5): 6 x ConvNeXtBlock(
          (dwconv): Conv1d(512, 512, kernel_size=(7,), stride=(1,), padding=(3,), groups=512)
          (norm): LayerNorm((512,), eps=1e-06, elementwise_affine=True)
          (pwconv1): Linear(in_features=512, out_features=2048, bias=True)
          (act): GELU(approximate='none')
          (pwconv2): Linear(in_features=2048, out_features=512, bias=True)
          (drop_path): Identity()
          (dropout): Dropout(p=0.1, inplace=False)
        )
      )
      (outconv): Conv1d(512, 128, kernel_size=(7,), stride=(1,), padding=(3,))
    )
  )
  (diffusion): RectifiedFlow(
    (velocity_fn): LYNXNet(
      (input_projection): Conv1d(128, 1024, kernel_size=(1,), stride=(1,))
      (diffusion_embedding): Sequential(
        (0): SinusoidalPosEmb()
        (1): Linear(in_features=1024, out_features=4096, bias=True)
        (2): GELU(approximate='none')
        (3): Linear(in_features=4096, out_features=1024, bias=True)
      )
      (residual_layers): ModuleList(
        (0-5): 6 x LYNXNetResidualLayer(
          (diffusion_projection): Conv1d(1024, 1024, kernel_size=(1,), stride=(1,))
          (conditioner_projection): Conv1d(256, 1024, kernel_size=(1,), stride=(1,))
          (convmodule): LYNXConvModule(
            (net): Sequential(
              (0): LayerNorm((1024,), eps=1e-05, elementwise_affine=True)
              (1): Transpose()
              (2): Conv1d(1024, 4096, kernel_size=(1,), stride=(1,))
              (3): SwiGLU()
              (4): Conv1d(2048, 2048, kernel_size=(31,), stride=(1,), padding=(15,), groups=2048)
              (5): PReLU(num_parameters=2048)
              (6): Conv1d(2048, 1024, kernel_size=(1,), stride=(1,))
              (7): Transpose()
              (8): Identity()
            )
          )
        )
      )
      (norm): LayerNorm((1024,), eps=1e-05, elementwise_affine=True)
      (output_projection): Conv1d(1024, 128, kernel_size=(1,), stride=(1,))
    )
  )
)
Removing weight norm...
Training: |          | 0/? [00:00<?, ?it/s]Training:   0%|          | 0/12 [00:00<?, ?it/s]Epoch 8:   0%|          | 0/12 [00:00<?, ?it/s] /home/liampond/env-py311/lib/python3.11/site-packages/lightning/pytorch/loops/training_epoch_loop.py:154: You're resuming from a checkpoint that ended before the epoch ended. This can cause unreliable results if further training is done. Consider using an end-of-epoch checkpoint
…
