…
[0;33mvocoder_ckpt[0m: checkpoints/dependency_checkpoints/nsf-hifigan/model.ckpt, [0;33mvoicing_db_max[0m: -12.0, [0;33mvoicing_db_min[0m: -96.0, [0;33mvoicing_smooth_width[0m: 0.12, [0;33mwin_size[0m: 2048, 
[0;33mwork_dir[0m: checkpoints/regular_variance_v1, 
| model Arch:  DiffSingerVariance(
  (fs2): FastSpeech2Variance(
    (txt_embed): NormalInitEmbedding(38, 256, padding_idx=0)
    (onset_embed): NormalInitEmbedding(2, 256)
    (word_dur_embed): XavierUniformInitLinear(in_features=1, out_features=256, bias=True)
    (encoder): FastSpeech2Encoder(
      (layers): ModuleList(
        (0-3): 4 x TransformerEncoderLayer(
          (op): EncSALayer(
            (layer_norm1): LayerNorm((256,), eps=1e-05, elementwise_affine=True)
            (self_attn): MultiheadSelfAttentionWithRoPE(
              (in_proj): Linear(in_features=256, out_features=768, bias=False)
              (out_proj): Linear(in_features=256, out_features=256, bias=False)
              (dropout): Dropout(p=0.0, inplace=False)
              (rotary_embed): RotaryEmbedding()
            )
            (layer_norm2): LayerNorm((256,), eps=1e-05, elementwise_affine=True)
            (ffn): TransformerFFNLayer(
              (act_fn): GELU(approximate='none')
              (ffn_1): Conv1d(256, 1024, kernel_size=(3,), stride=(1,), padding=(1,))
              (ffn_2): XavierUniformInitLinear(in_features=1024, out_features=256, bias=True)
            )
          )
        )
      )
      (layer_norm): LayerNorm((256,), eps=1e-05, elementwise_affine=True)
    )
    (midi_embed): NormalInitEmbedding(128, 256)
    (dur_predictor): DurationPredictor(
      (conv): ModuleList(
        (0): Sequential(
          (0): Identity()
          (1): Conv1d(256, 512, kernel_size=(3,), stride=(1,), padding=(1,))
          (2): ReLU()
          (3): LayerNorm((512,), eps=1e-12, elementwise_affine=True)
          (4): Dropout(p=0.1, inplace=False)
        )
        (1-4): 4 x Sequential(
          (0): Identity()
          (1): Conv1d(512, 512, kernel_size=(3,), stride=(1,), padding=(1,))
          (2): ReLU()
          (3): LayerNorm((512,), eps=1e-12, elementwise_affine=True)
          (4): Dropout(p=0.1, inplace=False)
        )
      )
      (linear): Linear(in_features=512, out_features=1, bias=True)
    )
  )
  (rr): RhythmRegulator()
  (lr): LengthRegulator()
  (base_pitch_embed): XavierUniformInitLinear(in_features=1, out_features=256, bias=True)
  (pitch_retake_embed): NormalInitEmbedding(2, 256)
  (pitch_predictor): PitchRectifiedFlow(
    (velocity_fn): WaveNet(
      (input_projection): Conv1d(64, 256, kernel_size=(1,), stride=(1,))
      (diffusion_embedding): SinusoidalPosEmb()
      (mlp): Sequential(
        (0): Linear(in_features=256, out_features=1024, bias=True)
        (1): Mish()
        (2): Linear(in_features=1024, out_features=256, bias=True)
      )
      (residual_layers): ModuleList(
        (0): ResidualBlock(
          (dilated_conv): Conv1d(256, 512, kernel_size=(3,), stride=(1,), padding=(1,))
          (diffusion_projection): Linear(in_features=256, out_features=256, bias=True)
          (conditioner_projection): Conv1d(256, 512, kernel_size=(1,), stride=(1,))
          (output_projection): Conv1d(256, 512, kernel_size=(1,), stride=(1,))
        )
        (1): ResidualBlock(
          (dilated_conv): Conv1d(256, 512, kernel_size=(3,), stride=(1,), padding=(2,), dilation=(2,))
          (diffusion_projection): Linear(in_features=256, out_features=256, bias=True)
          (conditioner_projection): Conv1d(256, 512, kernel_size=(1,), stride=(1,))
          (output_projection): Conv1d(256, 512, kernel_size=(1,), stride=(1,))
        )
        (2): ResidualBlock(
          (dilated_conv): Conv1d(256, 512, kernel_size=(3,), stride=(1,), padding=(4,), dilation=(4,))
          (diffusion_projection): Linear(in_features=256, out_features=256, bias=True)
          (conditioner_projection): Conv1d(256, 512, kernel_size=(1,), stride=(1,))
          (output_projection): Conv1d(256, 512, kernel_size=(1,), stride=(1,))
        )
        (3): ResidualBlock(
          (dilated_conv): Conv1d(256, 512, kernel_size=(3,), stride=(1,), padding=(8,), dilation=(8,))
          (diffusion_projection): Linear(in_features=256, out_features=256, bias=True)
          (conditioner_projection): Conv1d(256, 512, kernel_size=(1,), stride=(1,))
          (output_projection): Conv1d(256, 512, kernel_size=(1,), stride=(1,))
        )
        (4): ResidualBlock(
          (dilated_conv): Conv1d(256, 512, kernel_size=(3,), stride=(1,), padding=(16,), dilation=(16,))
          (diffusion_projection): Linear(in_features=256, out_features=256, bias=True)
          (conditioner_projection): Conv1d(256, 512, kernel_size=(1,), stride=(1,))
          (output_projection): Conv1d(256, 512, kernel_size=(1,), stride=(1,))
        )
        (5): ResidualBlock(
          (dilated_conv): Conv1d(256, 512, kernel_size=(3,), stride=(1,), padding=(1,))
          (diffusion_projection): Linear(in_features=256, out_features=256, bias=True)
          (conditioner_projection): Conv1d(256, 512, kernel_size=(1,), stride=(1,))
          (output_projection): Conv1d(256, 512, kernel_size=(1,), stride=(1,))
        )
        (6): ResidualBlock(
          (dilated_conv): Conv1d(256, 512, kernel_size=(3,), stride=(1,), padding=(2,), dilation=(2,))
          (diffusion_projection): Linear(in_features=256, out_features=256, bias=True)
          (conditioner_projection): Conv1d(256, 512, kernel_size=(1,), stride=(1,))
          (output_projection): Conv1d(256, 512, kernel_size=(1,), stride=(1,))
        )
        (7): ResidualBlock(
          (dilated_conv): Conv1d(256, 512, kernel_size=(3,), stride=(1,), padding=(4,), dilation=(4,))
          (diffusion_projection): Linear(in_features=256, out_features=256, bias=True)
          (conditioner_projection): Conv1d(256, 512, kernel_size=(1,), stride=(1,))
          (output_projection): Conv1d(256, 512, kernel_size=(1,), stride=(1,))
        )
        (8): ResidualBlock(
          (dilated_conv): Conv1d(256, 512, kernel_size=(3,), stride=(1,), padding=(8,), dilation=(8,))
          (diffusion_projection): Linear(in_features=256, out_features=256, bias=True)
          (conditioner_projection): Conv1d(256, 512, kernel_size=(1,), stride=(1,))
          (output_projection): Conv1d(256, 512, kernel_size=(1,), stride=(1,))
        )
        (9): ResidualBlock(
          (dilated_conv): Conv1d(256, 512, kernel_size=(3,), stride=(1,), padding=(16,), dilation=(16,))
          (diffusion_projection): Linear(in_features=256, out_features=256, bias=True)
          (conditioner_projection): Conv1d(256, 512, kernel_size=(1,), stride=(1,))
          (output_projection): Conv1d(256, 512, kernel_size=(1,), stride=(1,))
        )
        (10): ResidualBlock(
          (dilated_conv): Conv1d(256, 512, kernel_size=(3,), stride=(1,), padding=(1,))
          (diffusion_projection): Linear(in_features=256, out_features=256, bias=True)
          (conditioner_projection): Conv1d(256, 512, kernel_size=(1,), stride=(1,))
          (output_projection): Conv1d(256, 512, kernel_size=(1,), stride=(1,))
        )
        (11): ResidualBlock(
          (dilated_conv): Conv1d(256, 512, kernel_size=(3,), stride=(1,), padding=(2,), dilation=(2,))
          (diffusion_projection): Linear(in_features=256, out_features=256, bias=True)
          (conditioner_projection): Conv1d(256, 512, kernel_size=(1,), stride=(1,))
          (output_projection): Conv1d(256, 512, kernel_size=(1,), stride=(1,))
        )
        (12): ResidualBlock(
          (dilated_conv): Conv1d(256, 512, kernel_size=(3,), stride=(1,), padding=(4,), dilation=(4,))
          (diffusion_projection): Linear(in_features=256, out_features=256, bias=True)
          (conditioner_projection): Conv1d(256, 512, kernel_size=(1,), stride=(1,))
          (output_projection): Conv1d(256, 512, kernel_size=(1,), stride=(1,))
        )
        (13): ResidualBlock(
          (dilated_conv): Conv1d(256, 512, kernel_size=(3,), stride=(1,), padding=(8,), dilation=(8,))
          (diffusion_projection): Linear(in_features=256, out_features=256, bias=True)
          (conditioner_projection): Conv1d(256, 512, kernel_size=(1,), stride=(1,))
          (output_projection): Conv1d(256, 512, kernel_size=(1,), stride=(1,))
        )
        (14): ResidualBlock(
          (dilated_conv): Conv1d(256, 512, kernel_size=(3,), stride=(1,), padding=(16,), dilation=(16,))
          (diffusion_projection): Linear(in_features=256, out_features=256, bias=True)
          (conditioner_projection): Conv1d(256, 512, kernel_size=(1,), stride=(1,))
          (output_projection): Conv1d(256, 512, kernel_size=(1,), stride=(1,))
        )
        (15): ResidualBlock(
          (dilated_conv): Conv1d(256, 512, kernel_size=(3,), stride=(1,), padding=(1,))
          (diffusion_projection): Linear(in_features=256, out_features=256, bias=True)
          (conditioner_projection): Conv1d(256, 512, kernel_size=(1,), stride=(1,))
          (output_projection): Conv1d(256, 512, kernel_size=(1,), stride=(1,))
        )
        (16): ResidualBlock(
          (dilated_conv): Conv1d(256, 512, kernel_size=(3,), stride=(1,), padding=(2,), dilation=(2,))
          (diffusion_projection): Linear(in_features=256, out_features=256, bias=True)
          (conditioner_projection): Conv1d(256, 512, kernel_size=(1,), stride=(1,))
          (output_projection): Conv1d(256, 512, kernel_size=(1,), stride=(1,))
        )
        (17): ResidualBlock(
          (dilated_conv): Conv1d(256, 512, kernel_size=(3,), stride=(1,), padding=(4,), dilation=(4,))
          (diffusion_projection): Linear(in_features=256, out_features=256, bias=True)
          (conditioner_projection): Conv1d(256, 512, kernel_size=(1,), stride=(1,))
          (output_projection): Conv1d(256, 512, kernel_size=(1,), stride=(1,))
        )
        (18): ResidualBlock(
          (dilated_conv): Conv1d(256, 512, kernel_size=(3,), stride=(1,), padding=(8,), dilation=(8,))
          (diffusion_projection): Linear(in_features=256, out_features=256, bias=True)
          (conditioner_projection): Conv1d(256, 512, kernel_size=(1,), stride=(1,))
          (output_projection): Conv1d(256, 512, kernel_size=(1,), stride=(1,))
        )
        (19): ResidualBlock(
          (dilated_conv): Conv1d(256, 512, kernel_size=(3,), stride=(1,), padding=(16,), dilation=(16,))
          (diffusion_projection): Linear(in_features=256, out_features=256, bias=True)
          (conditioner_projection): Conv1d(256, 512, kernel_size=(1,), stride=(1,))
          (output_projection): Conv1d(256, 512, kernel_size=(1,), stride=(1,))
        )
      )
      (skip_projection): Conv1d(256, 256, kernel_size=(1,), stride=(1,))
      (output_projection): Conv1d(256, 64, kernel_size=(1,), stride=(1,))
    )
  )
)
| Copied spk map to checkpoints/regular_variance_v1/spk_map.json.
Traceback (most recent call last):
  File "/project/6002780/liampond/CantusSVS/scripts/train.py", line 32, in <module>
    run_task()
  File "/project/6002780/liampond/CantusSVS/scripts/train.py", line 28, in run_task
    task_cls.start()
  File "/project/6002780/liampond/CantusSVS/basics/base_task.py", line 467, in start
…
